…
/usr/local/lib/python2.7/dist-packages/keras/datasets/data_utils.py:4: UserWarning: data_utils has been moved to keras.utils.data_utils.
  warnings.warn('data_utils has been moved to keras.utils.data_utils.')
./iso_char_cnn_weight/
Training Data is Getting Ready!
____________________________________________________________________________________________________
Layer (type)                     Output Shape          Param #     Connected to                     
====================================================================================================
convolution2d_1 (Convolution2D)  (None, 32, 26, 26)    320         convolution2d_input_1[0][0]      
____________________________________________________________________________________________________
activation_1 (Activation)        (None, 32, 26, 26)    0           convolution2d_1[0][0]            
____________________________________________________________________________________________________
convolution2d_2 (Convolution2D)  (None, 32, 24, 24)    9248        activation_1[0][0]               
____________________________________________________________________________________________________
dropout_1 (Dropout)              (None, 32, 24, 24)    0           convolution2d_2[0][0]            
____________________________________________________________________________________________________
activation_2 (Activation)        (None, 32, 24, 24)    0           dropout_1[0][0]                  
____________________________________________________________________________________________________
convolution2d_3 (Convolution2D)  (None, 32, 22, 22)    9248        activation_2[0][0]               
____________________________________________________________________________________________________
dropout_2 (Dropout)              (None, 32, 22, 22)    0           convolution2d_3[0][0]            
____________________________________________________________________________________________________
activation_3 (Activation)        (None, 32, 22, 22)    0           dropout_2[0][0]                  
____________________________________________________________________________________________________
maxpooling2d_1 (MaxPooling2D)    (None, 32, 11, 11)    0           activation_3[0][0]               
____________________________________________________________________________________________________
dropout_3 (Dropout)              (None, 32, 11, 11)    0           maxpooling2d_1[0][0]             
____________________________________________________________________________________________________
flatten_1 (Flatten)              (None, 3872)          0           dropout_3[0][0]                  
____________________________________________________________________________________________________
dense_1 (Dense)                  (None, 512)           1982976     flatten_1[0][0]                  
____________________________________________________________________________________________________
activation_4 (Activation)        (None, 512)           0           dense_1[0][0]                    
____________________________________________________________________________________________________
dropout_4 (Dropout)              (None, 512)           0           activation_4[0][0]               
____________________________________________________________________________________________________
dense_2 (Dense)                  (None, 10)            5130        dropout_4[0][0]                  
____________________________________________________________________________________________________
activation_5 (Activation)        (None, 10)            0           dense_2[0][0]                    
====================================================================================================
Total params: 2006922
____________________________________________________________________________________________________
./epoch_0_e69-0.04.hdf5
Traceback (most recent call last):
  File "new_numeral_4.py", line 162, in <module>
    model.load_weights(mod_wgt_dir)
…
/usr/local/lib/python2.7/dist-packages/keras/datasets/data_utils.py:4: UserWarning: data_utils has been moved to keras.utils.data_utils.
  warnings.warn('data_utils has been moved to keras.utils.data_utils.')
./iso_char_cnn_weight/
Training Data is Getting Ready!
____________________________________________________________________________________________________
Layer (type)                     Output Shape          Param #     Connected to                     
====================================================================================================
convolution2d_1 (Convolution2D)  (None, 32, 26, 26)    320         convolution2d_input_1[0][0]      
____________________________________________________________________________________________________
activation_1 (Activation)        (None, 32, 26, 26)    0           convolution2d_1[0][0]            
____________________________________________________________________________________________________
convolution2d_2 (Convolution2D)  (None, 32, 24, 24)    9248        activation_1[0][0]               
____________________________________________________________________________________________________
dropout_1 (Dropout)              (None, 32, 24, 24)    0           convolution2d_2[0][0]            
____________________________________________________________________________________________________
activation_2 (Activation)        (None, 32, 24, 24)    0           dropout_1[0][0]                  
____________________________________________________________________________________________________
convolution2d_3 (Convolution2D)  (None, 32, 22, 22)    9248        activation_2[0][0]               
____________________________________________________________________________________________________
maxpooling2d_1 (MaxPooling2D)    (None, 32, 11, 11)    0           convolution2d_3[0][0]            
____________________________________________________________________________________________________
dropout_2 (Dropout)              (None, 32, 11, 11)    0           maxpooling2d_1[0][0]             
____________________________________________________________________________________________________
activation_3 (Activation)        (None, 32, 11, 11)    0           dropout_2[0][0]                  
____________________________________________________________________________________________________
convolution2d_4 (Convolution2D)  (None, 32, 9, 9)      9248        activation_3[0][0]               
____________________________________________________________________________________________________
dropout_3 (Dropout)              (None, 32, 9, 9)      0           convolution2d_4[0][0]            
____________________________________________________________________________________________________
activation_4 (Activation)        (None, 32, 9, 9)      0           dropout_3[0][0]                  
____________________________________________________________________________________________________
convolution2d_5 (Convolution2D)  (None, 32, 7, 7)      9248        activation_4[0][0]               
____________________________________________________________________________________________________
dropout_4 (Dropout)              (None, 32, 7, 7)      0           convolution2d_5[0][0]            
____________________________________________________________________________________________________
activation_5 (Activation)        (None, 32, 7, 7)      0           dropout_4[0][0]                  
____________________________________________________________________________________________________
flatten_1 (Flatten)              (None, 1568)          0           activation_5[0][0]               
____________________________________________________________________________________________________
dense_1 (Dense)                  (None, 512)           803328      flatten_1[0][0]                  
____________________________________________________________________________________________________
activation_6 (Activation)        (None, 512)           0           dense_1[0][0]                    
____________________________________________________________________________________________________
dropout_5 (Dropout)              (None, 512)           0           activation_6[0][0]               
____________________________________________________________________________________________________
dense_2 (Dense)                  (None, 10)            5130        dropout_5[0][0]                  
____________________________________________________________________________________________________
activation_7 (Activation)        (None, 10)            0           dense_2[0][0]                    
====================================================================================================
Total params: 845770
____________________________________________________________________________________________________
./EE3+.hdf5
6000/6000 [==============================] - 7s     
6000
[0.018440335603508478, 0.99533333333333329]
sharif-apu@sharifapu-MS-7721:~/MEGAsync/new_numeral/exp/cross validation$ 
…
